final_project/model/keypoint_classifier/keypoint_classifier.tflite (tflite, 6632 bytes, 6 tensors)

sequential/dense/BiasAdd/ReadVariableOp f4 [20]
-0.04477214 -0.7858826 -0.028188499 0.60213757 0.49727014 0.42942062 0.3441387 -0.11047999
0.07919242 -1.1717998 -1.1962063 -0.64566916 0.0005538393 0.1471607 0.6313379 -0.98983884
-0.9381562 -0.47099882 -0.6319401 0.5309209
00000000: fe62 37bd 9a2f 49bf 91eb e6bc b025 1a3f
00000010: 319a fe3e 05dd db3e f332 b03e 5543 e2bd
00000020: a32f a23d 89fd 95bf 4a1d 99bf 934a 25bf
00000030: 872f 113a 4bb1 163e 5c9f 213f 1466 7dbf
00000040: 012b 70bf c226 f1be d4c6 21bf 6fea 073f

sequential/dense_2/BiasAdd/ReadVariableOp f4 [6]
-0.7114911 0.20682725 0.083102286 -0.7093819 0.47186664 0.70325726
00000000: 4824 36bf 86ca 533e 8831 aa3d 0d9a 35bf
00000010: 8198 f13e ab08 343f

sequential/dense_1/BiasAdd/ReadVariableOp f4 [10]
0.9520234 0.71145856 0.36447185 0.3269542 0.96748745 0.78428215 -0.48931843 1.7486666
0.6310113 0.95802236
00000000: ceb7 733f 2622 363f 0e9c ba3e 8a66 a73e
00000010: 42ad 773f b7c6 483f f287 fabe 4fd4 df3f
00000020: f589 213f f440 753f

sequential/dense/MatMul f4 [20, 42]
-0.11716728 -0.12033346 -0.3319967 -0.42900208 -0.36544728 -0.06487044 -0.2056217 0.07582415
0.014319464 0.036237765 -0.28933725 -0.11773897 -0.19702934 -0.04374686 -0.09545728 -0.36595812
-0.08926281 -0.31771767 -0.30030727 0.03599051 -0.703861 0.23316371 -0.4729823 0.41802728
-0.20528847 0.44762093 -0.48802644 0.13127162 -0.8291099 0.36492053 -0.59775275 0.52931875
-0.16875297 0.44870606 -0.63284546 0.31330034 -0.5884277 0.35008755 -0.48076114 0.44421804
-0.47558692 0.46697173 0.27225393 -0.053222537 0.08179909 -1.8188617 0.05606156 -0.7945264
0.1339745 -0.53340346 0.0035988777 -0.4453054 0.97624993 -0.4062452 0.47932187 -0.16426514
0.38965648 -0.056866392 -0.013161946 -0.07650984 0.8680934 -0.25326455 0.16313396 -0.04706199
0.04260542 0.15553768 0.14022228 0.1329305 0.6846044 -0.045030944 -0.06426017 0.056984194
0.007150231 0.18726149 0.26576233 0.22696988 0.41926557 0.18455406 -0.11226193 0.17773645
-0.15316683 0.2803721 -0.041402202 0.25861117 -0.3009541 -0.009189129 0.18466622 0.63880795
0.034037374 0.5178683 -0.26485586 0.37473497 -0.23881148 0.3074069 0.549104 0.23120466
-0.21611483 0.19055156 -0.52512157 0.20947842 -0.6965252 0.22559074 0.3242678 0.14931768
-0.058917463 0.077170864 -0.7958805 0.0060570654 -1.3307526 0.0040324796 0.22285476 0.03235285
0.4546487 0.0019428986 0.1754295 -0.055725653 -0.79589707 -0.053342257 0.027260883 -0.04610076
0.63446474 -0.049165606 1.1034509 -0.122586995 0.7475471 -0.11491729 -0.30156517 -0.16613114
-0.4488023 -0.0039587864 0.1996492 0.15386857 0.26366067 0.049151726 0.23857373 0.10741147
0.17670797 0.3374363 -0.37677267 0.5571704 -0.5191183 0.47892046 -0.19202751 0.6696252
0.08340412 0.7338914 -0.036074623 0.67834026 -0.05695891 0.30444667 -0.14363767 0.4344951
-0.03864787 1.0108762 -0.17844477 0.36133897 -0.2570806 -0.11338902 0.076151945 0.49382722
0.0838837 -0.121044636 -0.17556798 -0.44261166 -0.34870544 -0.48956275 -0.028512578 -0.30022073
-0.028137028 0.082680464 0.1704474 0.5825957 -0.09571341 0.32672083 -0.45628282 0.24786308
-0.53418183 0.20923054 0.28529003 0.15314342 0.56223655 0.060174022 0.6689738 0.022558017
0.7558222 0.0115393475 0.22664218 0.119282454 -0.036681253 0.03465996 -0.62361485 0.053121157
-0.5770638 0.075163424 0.19983757 0.023666644 -0.045665644 0.02498385 -0.35088423 0.02375293
-0.31781384 0.021247257 0.15107685 -0.058991518 0.017197743 -0.054129273 -0.13712914 -0.062933035
0.07073545 -0.060705345 -0.169424 -0.083240494 0.42687422 -0.8071041 -0.0016893563 -0.23807086
-0.6728229 -0.07946827 -0.3939869 -0.06435061 -0.1235213 -0.19107722 1.372589 -0.041099083
1.5388712 0.00072973093 1.5200334 0.01628067 -0.24780916 -0.023697022 0.027930936 0.07441188
-0.3086898 0.1139462 -0.5282678 0.16637598 -0.13134682 0.16673675 0.07276189 0.1635581
0.108340055 0.22577894 -0.22776477 0.2511788 -0.20063965 0.35438648 0.2790349 0.29408053
0.29323852 0.39286777 0.05554812 0.36947346 0.034033805 0.25471926 -0.6521867 -0.9571485
00000000: 66f5 efbd 6471 f6bd 79fb a9be 29a6 dbbe
00000010: e81b bbbe cbda 84bd 7f8e 52be b149 9b3d
00000020: 2f9c 6a3c 0d6e 143d 0324 94be 2121 f1bd
00000030: 0fc2 49be e82f 33bd 1b7f c3bd dd5e bbbe
00000040: 6ccf b6bd e4ab a2be e0c1 99be c96a 133d
00000050: 3c30 34bf 78c2 6e3e bc2a f2be ac07 d63e
00000060: 2437 52be 922e e53e 9ade f9be 116c 063e
00000070: 8c40 54bf ddd6 ba3e 5306 19bf 6f81 073f
00000080: 94cd 2cbe cdbc e53e 2902 22bf e768 a03e
00000090: 33a3 16bf ad3e b33e 5326 f6be 8c70 e33e
000000a0: 2180 f3be eb16 ef3e de64 8b3e e0ff 59bd
000000b0: 4886 a73d 76d0 e8bf cea0 653d 1566 4bbf
000000c0: 9c30 093e 218d 08bf 26db 6b3b 12ff e3be
000000d0: 84eb 793f 5fff cfbe ad69 f53e 1f35 28be
000000e0: 0e81 c73e bcec 68bd 34a5 57bc 31b1 9cbd
000000f0: 5e3b 5e3f e4ab 81be 970c 273e 13c4 40bd
00000100: 0583 2e3d 4545 1f3e 6e96 0f3e ef1e 083e
00000110: 3c42 2f3f 5e72 38bd d69a 83bd 4268 693d
00000120: 7c4c ea3b 7ac1 3f3e 0012 883e cb6a 683e
00000130: faa9 d63e bdfb 3c3e 95e9 e5bd 8b00 363e
00000140: c4d7 1cbe ef8c 8f3e 5b95 29bd af68 843e
00000150: a816 9abe 008e 16bc 2419 3d3e eb88 233f
00000160: c66a 0b3d 0493 043f 309b 87be 43dd bf3e
00000170: ff8a 74be 7064 9d3e 1492 0c3f eac0 6c3e
00000180: 354d 5dbe f31f 433e 5e6e 06bf 8381 563e
00000190: 7a4f 32bf 4201 673e 6e06 a63e bce6 183e
000001a0: 7053 71bd c20b 9e3d d3be 4bbf 597a c63b
000001b0: 1a56 aabf e422 843b 0a34 643e 6c84 043d
000001c0: b7c7 e83e dca8 fe3a caa3 333e 9540 64bd
000001d0: e9bf 4bbf 697d 5abd 3752 df3c 27d4 3cbd
000001e0: 486c 223f e061 49bd e13d 8d3f e40e fbbd
000001f0: 3f5f 3f3f c259 ebbd c066 9abe 481e 2abe
00000200: 6ac9 e5be b5b8 81bb d770 4c3e b98f 1d3e
00000210: 88fe 863e 5253 493d ac4c 743e 8bfa db3d
00000220: eff2 343e 73c4 ac3e 59e8 c0be b8a2 0e3f
00000230: f0e4 04bf 1035 f53e dca2 44be 8f6c 2b3f
00000240: c7cf aa3d 4fe0 3b3f fcc2 13bd b5a7 2d3f
00000250: bf4d 69bd 6fe0 9b3e c115 13be 2476 de3e
00000260: 3b4d 1ebd 6464 813f 3aba 36be 6c01 b93e
00000270: 12a0 83be 8138 e8bd 8df5 9b3d ecd6 fc3e
00000280: 38cb ab3d 40e6 f7bd 18c8 33be ff9d e2be
00000290: 8589 b2be f8a7 fabe 3693 e9bc 88b6 99be
000002a0: a07f e6bc 6054 a93d c389 2e3e fe24 153f
000002b0: 6405 c4bd f447 a73e e79d e9be d2cf 7d3e
000002c0: 24c0 08bf 8840 563e 8911 923e a1d1 1c3e
000002d0: bcee 0f3f 0979 763d de41 2b3f 97cb b83c
000002e0: 907d 413f 880f 3d3c e314 683e 5c4a f43d
000002f0: 153f 16bd 9af7 0d3d 39a5 1fbf 9295 593d
00000300: 74ba 13bf 48ef 993d 38a2 4c3e 8de0 c13c
00000310: e60b 3bbd eeaa cc3c 19a7 b3be 8195 c23c
00000320: 7fb8 a2be ba0e ae3c e4b3 1a3e 17a1 71bd
00000330: 48e2 8c3c a8b6 5dbd 956b 0cbe 09e3 80bd
00000340: bfdd 903d 2ba6 78bd 7c7d 2dbe fe79 aabd
00000350: 428f da3e 609e 4ebf 646d ddba d9c8 73be
00000360: 1f3e 2cbf 43c0 a2bd a7b8 c9be 41ca 83bd
00000370: bcf8 fcbd bfa9 43be ffb0 af3f 8357 28bd
00000380: bbf9 c43f 6a4b 3f3a 7490 c23f 0a5f 853c
00000390: afc1 7dbe 4220 c2bc 6bcf e43c 4165 983d
000003a0: 970c 9ebe a05c e93d 8f3c 07bf 775e 2a3e
000003b0: c87f 06be 0abd 2a3e 3004 953d c67b 273e
000003c0: 64e1 dd3d 9832 673e 2b3b 69be 829a 803e
000003d0: 7b74 4dbe 2572 b53e aadd 8e3e b991 963e
000003e0: 5c23 963e f725 c93e 6d86 633d a02b bd3e
000003f0: 0867 0b3d 906a 823e b5f5 26bf af07 75bf

sequential/dense_1/MatMul f4 [10, 20]
0.4359152 -0.38765374 0.36872604 0.9607066 -0.013368983 -0.08605539 -0.22546983 0.88992786
0.54045075 0.3998473 -1.5406744 0.10317296 0.05402694 -0.35739562 0.6712832 0.35276207
0.25982285 0.87090206 -0.4038166 0.7448164 0.24451382 0.92639184 -0.91526735 -0.56696504
-1.0412546 0.49427357 0.45889512 -1.0438406 -1.3453085 0.023843348 -0.0083626835 0.89551467
0.4220994 0.25988492 -0.8522431 -0.040895477 -0.3061664 0.13107853 0.9949344 -0.903039
0.45614713 0.18421832 0.8540175 0.41501632 0.6986003 0.04342594 -1.0230517 0.17191553
0.171831 -0.09048315 0.07896128 0.8759514 0.94370586 0.5940026 0.6079189 0.08687513
0.09376795 0.20595257 1.0374312 0.20418511 0.054444443 -0.66969883 -0.46709117 -0.37230965
-1.4507645 -1.1475419 0.41090888 0.5377383 0.34501827 0.873483 0.6232706 -0.47555697
0.6565634 -0.13575596 -0.8056456 0.13779359 0.25897685 -0.26622984 -1.0239722 -0.6161456
0.6730638 0.5884238 -0.30811062 -0.6105792 0.7835003 1.3106341 0.8060131 -1.072676
0.33563727 -0.54845077 0.064997315 0.3047468 0.13737021 0.09330684 -0.48921362 0.26449552
0.3928713 -1.0096855 0.480173 -0.32047486 -0.0017634832 -0.11367788 0.07877611 -1.4388398
-0.011070249 -0.044883452 0.068087004 0.25851503 0.8447994 0.76909995 1.1116269 0.68894213
0.013309877 0.03606301 -0.75637174 1.0009346 1.1634834 -0.50073284 0.7126344 -0.24796443
-1.2876035 0.0076654456 0.16359419 -0.6294551 -0.30457148 -1.2955022 -0.11538721 0.120849535
-0.2266099 0.6884204 0.43593433 0.61712 0.4728989 -0.41259456 -0.78403074 0.39586875
0.3691086 -0.87704986 1.0457765 -0.6375748 0.017490162 0.18451226 -1.3639884 -0.6316582
-0.3183976 -0.24160407 0.4828468 -0.5418967 -0.2292748 0.43039846 0.221277 0.37280193
-1.3842201 -1.4369807 -0.5517726 0.49042195 0.7396379 -1.0519729 0.19417436 -0.5415613
0.76863223 0.030179765 -0.30079433 0.4565469 -0.068051055 0.3041825 0.23261397 0.22054586
0.3589254 -0.71525484 0.24091107 -1.2027872 0.08644316 0.12021574 -0.23845 0.31112874
0.064491175 -0.066290915 -1.3001583 0.5550624 0.24737129 -1.2428745 0.7278327 0.6428191
0.5055978 0.3161187 0.3037658 0.22465831 0.31193665 -1.0252082 -0.51760614 0.47395116
0.41759992 0.37313575 0.46053833 -0.9383861 -0.03420796 0.5477795 0.4120047 0.7599086
00000000: 4730 df3e 8d7a c6be a9c9 bc3e def0 753f
00000010: 9409 5bbc cf3d b0bd 90e1 66be 50d2 633f
00000020: fb5a 0a3f c9b8 cc3e d234 c5bf 584c d33d
00000030: 5a4b 5d3d 8ffc b6be 37d9 2b3f 3b9d b43e
00000040: 8007 853e 70f3 5e3f 0dc1 cebe 4aac 3e3f
00000050: d561 7a3e 0428 6d3f f64e 6abf 9f24 11bf
00000060: d547 85bf 6d11 fd3e 4df4 ea3e 929c 85bf
00000070: 1233 acbf 2053 c33c a303 09bc 7340 653f
00000080: 6a1d d83e a30f 853e 9b2c 5abf 0482 27bd
00000090: d8c1 9cbe 7339 063e 05b4 7e3f 902d 67bf
000000a0: 1e8c e93e baa3 3c3e e4a0 5a3f 057d d43e
000000b0: 78d7 323f 66df 313d 5cf3 82bf a00a 303e
000000c0: 77f4 2f3e 3b4f b9bd 74b6 a13d 5a3e 603f
000000d0: b596 713f 8e10 183f 93a0 1b3f 97eb b13d
000000e0: 6909 c03d 3be5 523e 8cca 843f e715 513e
000000f0: 2301 5f3d 6271 2bbf 9326 efbe 5f9f bebe
00000100: a7b2 b9bf a7e2 92bf a662 d23e 38a9 093f
00000110: 3ca6 b03e 959c 5f3f a98e 1f3f 347c f3be
00000120: 8a14 283f 9c03 0bbe ca3e 4ebf c319 0d3e
00000130: 9d98 843e 474f 88be 8511 83bf b8bb 1dbf
00000140: e94d 2c3f f1a2 163f adc0 9dbe eb4e 1cbf
00000150: 7a93 483f dcc2 a73f e056 4e3f 724d 89bf
00000160: a6d8 ab3e 4567 0cbf 501d 853d c607 9c3e
00000170: c7aa 0c3e a817 bf3d 357a fabe f56b 873e
00000180: 6d26 c93e 603d 81bf 3cd9 f53e 4815 a4be
00000190: ad24 e7ba f3cf e8bd 5f55 a13d e72b b8bf
000001a0: fd5f 35bc b6d7 37bd 3371 8b3d 155c 843e
000001b0: c644 583f bce3 443f ca49 8e3f 835e 303f
000001c0: ac11 5a3c cfb6 133d 94a1 41bf a01e 803f
000001d0: 06ed 943f 0730 00bf 356f 363f 63ea 7dbe
000001e0: 31d0 a4bf 6b2e fb3b 3c85 273e f823 21bf
000001f0: cbf0 9bbe 04d3 a5bf 2150 ecbd f67f f73d
00000200: 6d0c 68be 523c 303f c932 df3e 94fb 1d3f
00000210: ce1f f23e 983f d3be 3db6 48bf 4faf ca3e
00000220: cdfb bc3e 5786 60bf 01dc 853f 1a38 23bf
00000230: 8747 8f3c c8f0 3c3e 2c97 aebf 5ab4 21bf
00000240: 0305 a3be 0f67 77be b237 f73e beb9 0abf
00000250: 03c7 6abe 305d dc3e 7096 623e e5df be3e
00000260: 202e b1bf fcee b7bf f840 0dbf 9618 fb3e
00000270: e958 3d3f 0ca7 86bf a5d5 463e c3a3 0abf
00000280: 15c5 443f 8e3b f73c b701 9abe 84c0 e93e
00000290: 5a5e 8bbd cfbd 9b3e 5b32 6e3e c6d6 613e
000002a0: 12c5 b73e f11a 37bf 64b1 763e eef4 99bf
000002b0: 1d09 b13d ab33 f63d 3d2c 74be 444c 9f3e
000002c0: f313 843d 88c3 87bd 966b a6bf 9218 0e3f
000002d0: e64e 7d3e 8316 9fbf 3e53 3a3f cb8f 243f
000002e0: db6e 013f 4fda a13e 3187 9b3e d40c 663e
000002f0: 29b6 9f3e 063a 83bf d681 04bf baa9 f23e
00000300: a8cf d53e a60b bf3e aecb eb3e 123a 70bf
00000310: a51d 0cbd 473b 0c3f 48f2 d23e 5f89 423f

sequential/dense_2/MatMul f4 [6, 10]
0.07708938 1.4261224 -0.017834898 0.2057046 0.48791444 -1.6762297 0.27241775 -0.39632627
-0.22846134 0.98293144 0.03666837 -0.7839751 0.6769595 -0.5619496 0.14503142 -1.147784
-0.28090838 -1.796756 0.45343864 0.513695 -0.19945826 -0.80960864 -1.2549269 0.75255513
-0.76078427 0.26420557 0.25845337 -0.12966692 0.49010202 -0.174298 -0.29086483 -0.80065256
0.9040005 -0.051342603 -0.49931562 0.55627376 0.88073236 -0.90028024 -0.47642455 -0.3231566
-1.4544134 0.6776652 -0.65337956 -0.66697013 -0.14285478 0.25477463 0.22094424 1.050238
-1.1170024 -1.1682354 -2.0799925 -0.53279084 0.37296572 -1.0529557 1.2145108 0.15451731
-1.3939501 0.34632424 0.6919787 -1.0614394
00000000: 09e1 9d3d 2e8b b63f 7e1a 92bc 3aa4 523e
00000010: eccf f93e b28e d6bf 577a 8b3e 47eb cabe
00000020: c5f1 69be 65a1 7b3f 9331 163d 98b2 48bf
00000030: 384d 2d3f eedb 0fbf 1e83 143e 96ea 92bf
00000040: 39d3 8fbe 1afc e5bf 1c29 e83e 8481 033f
00000050: c93e 4cbe 8342 4fbf 72a1 a0bf 74a7 403f
00000060: c2c2 42bf f445 873e 0054 843e 68c7 04be
00000070: a7ee fa3e 2d7b 32be 3cec 94be 91f7 4cbf
00000080: 946c 673f 9f4c 52bd 4ca6 ffbe f567 0e3f
00000090: ad77 613f c478 66bf ebed f3be c874 a5be
000000a0: 382a babf 777b 2d3f e243 27bf 8ebe 2abf
000000b0: 8648 12be d271 823e 353f 623e 336e 863f
000000c0: eff9 8ebf bd88 95bf 991e 05c0 fb64 08bf
000000d0: 5df5 be3e 41c7 86bf 1775 9b3f c939 1e3e
000000e0: f56c b2bf 6951 b13e 8425 313f 3fdd 87bf
